model/keypoint_classifier/keypoint_classifier.tflite (tflite, 6728 bytes, 6 tensors)

arith.constant f4 [8, 10]
0.43650433 -0.37712312 -0.33565563 0.4689361 0.18642844 0.7648895 -0.04012396 0.48686442
-0.8796492 -1.030639 -0.050342243 0.877277 0.07846024 0.5203277 -0.48924282 -0.045538038
-0.7643799 0.433223 -0.58183205 0.68839246 -0.034105044 -0.8348414 -0.5448362 0.37585786
-1.6413999 -0.1095121 -1.542845 0.38628972 1.3101768 0.07315723 -1.1162719 -0.7688553
0.3599414 -0.11625903 0.6824944 -0.18865533 0.5519984 0.13533147 -0.7278676 -1.2428355
-0.855347 0.50875854 0.9298441 -0.33514756 -1.7639716 0.047604483 0.69363594 -0.42751402
-0.38776785 0.83037776 0.3709322 -0.051122613 -0.9638509 -1.5235124 0.52469736 -1.616454
0.067843504 -1.5402906 -0.432835 -0.05664057 -0.7302046 -0.49064365 -0.47012076 -1.5365702
0.6518201 -0.010684894 -0.078841224 -0.6102815 -0.7761033 0.7087495 0.42643046 -0.076723255
-0.6549656 -1.0806769 0.15522368 -1.7296758 -0.5900336 -0.97349167 0.9149979 -0.8170951
00000000: 7f7d df3e 4816 c1be 0edb abbe 6418 f03e
00000010: 19e7 3e3e cccf 433f 0559 24bd 4b46 f93e
00000020: b130 61bf fbeb 83bf ab33 4ebd 3a95 603f
00000030: c3af a03d 3234 053f 097e fabe 1886 3abd
00000040: 67ae 43bf 68cf dd3e f2f2 14bf 7d3a 303f
00000050: bbb1 0bbd 2ab8 55bf 637a 0bbf 7170 c03e
00000060: 6419 d2bf e147 e0bd f27b c5bf c4c7 c53e
00000070: e0b3 a73f 75d3 953d ffe1 8ebf b3d3 44bf
00000080: 3d4a b83e 3719 eebd f4b7 2e3f dd2e 41be
00000090: c44f 0d3f 5594 0a3e 8855 3abf 3c15 9fbf
000000a0: 05f8 5abf 003e 023f 430a 6e3f 7698 abbe
000000b0: d2c9 e1bf ebfc 423d 2092 313f 1ee3 dabe
000000c0: 8289 c6be a393 543f d3ea bd3e f265 51bd
000000d0: efbe 76bf 7402 c3bf 9152 063f f7e7 cebf
000000e0: 89f1 8a3d 3e28 c5bf 8d9c ddbe f1ff 67bd
000000f0: b0ee 3abf a535 fbbe abb3 f0be 55ae c4bf
00000100: afdd 263f b20f 2fbc 8277 a1bd 693b 1cbf
00000110: b5ae 46bf 9b70 353f 1855 da3e 1521 9dbd
00000120: d3ab 27bf 9f53 8abf f5f2 1e3e 0466 ddbf
00000130: 710c 17bf c036 79bf 4d3d 6a3f 252d 51bf

arith.constant1 f4 [10, 20]
-0.27651566 0.13589549 0.47655565 0.31825608 0.24933773 0.034050945 0.98825485 0.4172855
-0.16980813 0.058389958 -0.0855806 0.27983928 -0.1098301 0.18071812 0.12815775 0.8727542
0.6151768 -0.18366802 -0.61683375 0.7840124 0.3746626 0.12722534 0.22171015 -0.23264219
0.36009485 1.2724475 0.12954041 -0.32557625 0.44237286 0.14743821 0.4183054 0.30606043
0.64104605 0.31488872 0.4776028 -0.119441174 0.5349011 0.27050737 -0.044294156 0.15656151
0.4817719 -0.17931493 -0.98353 -0.082897484 0.061531734 0.6440692 -0.6531319 -0.19286734
-0.68949324 0.5500324 0.49547458 -0.70424086 0.04684607 0.187452 0.7678329 -0.14676446
0.47951886 0.14655253 0.5989917 -0.49145496 0.22274299 0.1443344 0.34915078 0.1002364
0.073206246 -0.37404358 -1.0119139 0.9076136 1.2143583 0.25618324 -0.011986194 0.39332515
-0.4012217 0.061062645 1.4283224 0.14663026 0.8847964 -0.120280266 1.0235689 0.53661567
0.49999067 1.2850547 0.33113822 1.2663795 1.3885479 -0.22606428 0.12566158 0.12565394
0.0061037308 -0.31196994 0.76217234 -1.1910596 0.13353623 1.3684934 0.1352694 -0.052537814
-0.19070853 -0.0113618085 -0.040759988 0.39993992 -0.085116096 0.09823629 -0.22605148 0.0757727
0.27221617 -0.23055953 0.19475538 -0.034797575 0.13760556 1.6065035 -0.045476563 0.87590265
-0.46449322 0.13681008 0.35718533 -0.3658961 0.6391613 0.7698 0.77925324 0.31145957
0.5214605 -0.28849253 0.4708819 0.27775782 0.36128145 -0.36775875 -0.11463387 -0.03051559
-0.009595944 -0.2877056 0.6921487 -0.20522287 0.037262563 -0.65791416 -0.051409166 -0.30847472
-0.14377043 -0.25412977 0.07127286 -0.6435514 -0.38681886 -0.0663828 0.50676405 -0.025486853
-0.1515261 -0.39422622 0.5771688 1.298342 0.85517836 -0.31549254 -0.034923155 0.6770212
-0.6932537 -0.027381148 1.7154168 1.4175532 -0.17061849 -0.20657983 0.75112396 0.47296733
-0.7243125 -0.03108518 0.18907772 -0.38488472 -0.1246863 -0.11991832 0.16278042 -0.030951193
0.5152604 -0.5769094 0.16657345 -0.3014095 -0.53596234 -0.050534897 0.3591035 -0.06928863
0.42820844 -0.03843848 0.20423573 0.25231397 0.49052918 -0.051440462 0.11958827 0.09808333
-0.01131537 0.84255916 0.31501138 0.41346946 0.6716487 0.08016466 0.28165686 -0.0568109
1.9818019 -0.07474742 0.09714956 -0.0043427604 0.46730846 2.0272028 -0.0438109 0.15743187
00000000: 7693 8dbe 3028 0b3e 1aff f33e 76f2 a23e
00000010: 6452 7f3e 0179 0b3d 45fe 7c3f 72a6 d53e
00000020: 2fe2 2dbe 4f2a 6f3d e244 afbd 1847 8f3e
00000030: 9aee e0bd 2c0e 393e c93b 033e d26c 5f3f
00000040: 3a7c 1d3f 7813 3cbe d1e8 1dbf 09b5 483f
00000050: c7d3 bf3e 5c47 023e fc07 633e c139 6ebe
00000060: 5a5e b83e 8fdf a23f 3ea6 043e eeb1 a6be
00000070: b27e e23e 0bfa 163e 202c d63e f4b3 9c3e
00000080: 981b 243f 1839 a13e 5b88 f43e 939d f4bd
00000090: 47ef 083f f17f 8a3e ca6d 35bd a951 203e
000000a0: ceaa f63e 559e 37be 9fc8 7bbf 28c6 a9bd
000000b0: b308 7c3d b8e1 243f a733 27bf 047f 45be
000000c0: a182 30bf ecce 0c3f d8ae fd3e 2149 34bf
000000d0: aae1 3f3d 6bf3 3f3e b290 443f 6c49 16be
000000e0: 7f83 f53e de11 163e 8557 193f fc9f fbbe
000000f0: bd16 643e 66cc 133e e4c3 b23e be48 cd3d
00000100: 28ed 953d a482 bfbe 6586 81bf 5d59 683f
00000110: 1870 9b3f 732a 833e be61 44bc ea61 c93e
00000120: ee6c cdbe d31c 7a3d 45d3 b63f 3e26 163e
00000130: 0482 623f 8055 f6bd 4e04 833f a55f 093f
00000140: c7fe ff3e ac7c a43f f38a a93e b918 a23f
00000150: f0bb b13f 657d 67be 6ead 003e 6dab 003e
00000160: ce01 c83b 86ba 9fbe ba1d 433f a474 98bf
00000170: b9bd 083e cb2a af3f 1084 0a3e e431 57bd
00000180: 1949 43be e126 3abc f2f3 26bd edc4 cc3e
00000190: 5951 aebd 1c30 c93d 0a7a 67be b82e 9b3d
000001a0: eb5f 8b3e cc17 6cbe f46d 473e e787 0ebd
000001b0: 79e8 0c3e e8a1 cd3f a245 3abd 283b 603f
000001c0: 0ed2 edbe f117 0c3e ffe0 b63e bc56 bbbe
000001d0: 13a0 233f 9d11 453f 247d 473f a177 9f3e
000001e0: 6f7e 053f 4bb5 93be 6f17 f13e 4636 8e3e
000001f0: e2f9 b83e e04a bcbe 2ac5 eabd d5fb f9bc
00000200: 4e38 1dbc 264e 93be a830 313f f225 52be
00000210: a1a0 183d 106d 28bf 6b92 52bd 66f0 9dbe
00000220: 8e38 13be 4c1d 82be 81f7 913d c9bf 24bf
00000230: 1f0d c6be b5f3 87bd 4abb 013f cec9 d0bc
00000240: a829 1bbe 05d8 c9be 56c1 133f 1230 a63f
00000250: f8ec 5a3f 3d88 a1be 950b 0fbd 4351 2d3f
00000260: 1379 31bf 6e4e e0bc c792 db3f 6272 b53f
00000270: 9db6 2ebe aa89 53be a949 403f c628 f23e
00000280: 8b6c 39bf 59a6 febc 979d 413e 9c0f c5be
00000290: 885b ffbd bc97 f5bd e9af 263e 5b8d fdbc
000002a0: 1be8 033f 56b0 13bf 3b92 2a3e 5952 9abe
000002b0: d434 09bf aefd 4ebd 6adc b73e 32e7 8dbd
000002c0: 233e db3e ab71 1dbd 2c23 513e 4c2f 813e
000002d0: a426 fb3e 3cb3 52bd b2ea f43d eadf c83d
000002e0: 1a64 39bc f5b1 573f 2c49 a13e 45b2 d33e
000002f0: 2bf1 2b3f 5f2d a43d 5435 903e 8cb2 68bd
00000300: afab fd3f 2d15 99bd 59f6 c63d b74d 8ebb
00000310: 0e43 ef3e b1bd 0140 0f73 33bd d235 213e

arith.constant2 f4 [8]
-0.4184733 -0.48409143 0.7758613 -0.25031736 -0.29378882 0.5091681 -0.12807444 0.33313835
00000000: 2242 d6be d5da f7be d99e 463f 9929 80be
00000010: 7d6b 96be d758 023f f225 03be 1c91 aa3e

sequential_1/dense_1_2/Add/ReadVariableOp f4 [10]
0.6588142 -0.023630584 0.40515924 0.75092417 0.45598066 -0.31199846 0.24190249 -0.2843305
1.4170443 0.27210733
00000000: 0ca8 283f ed94 c1bc 0871 cf3e 913c 403f
00000010: 4c76 e93e 43be 9fbe 49b5 773e c493 91be
00000020: b561 b53f a751 8b3e

sequential_1/dense_1/Add/ReadVariableOp f4 [20]
-1.0858154 -0.41847393 -0.27418184 -0.38987964 -0.6490827 -1.0547547 0.7208046 0.34331745
-0.6216268 -0.3117553 -0.922823 0.23587932 -1.3090882 -0.47657582 -0.34397283 0.61992633
-0.50753915 -1.4157479 0.25256893 0.51618165
00000000: 00fc 8abf 3742 d6be 9061 8cbe 4e9e c7be
00000010: 492a 26bf 3402 87bf a686 383f 4ec7 af3e
00000020: ef22 1fbf 649e 9fbe 213e 6cbf 598a 713e
00000030: 3490 a7bf bf01 f4be 351d b0be 7eb3 1e3f
00000040: 16ee 01bf 3a37 b5bf b750 813e 7b24 043f

sequential_1/dense_1/MatMul f4 [20, 42]
0.120331824 0.043502986 -0.7914568 -0.07843055 -0.37185806 -0.14889902 -0.39986092 -0.011628099
-0.44330353 -0.38126138 -0.018181778 0.061907955 -0.019993756 0.064277105 0.10733228 0.1656117
0.16515326 0.23224922 -0.047945134 0.06306346 -0.09181757 -0.1506192 -0.06174095 -0.23414584
-0.13788027 -0.13752747 -0.15444608 0.031579316 -0.016634643 -0.13069047 0.016842803 -0.19147688
-0.11553653 0.015602783 -0.28156814 -0.088271424 -0.06558961 -0.19791956 0.06458996 -0.1650571
-0.06620156 0.013501133 -0.27715874 0.111444294 -0.0077310405 0.42700455 0.09862274 0.22623472
0.07299159 0.18149148 0.09787174 0.13081044 0.053674225 0.08468308 0.03088299 0.07024645
-0.04943056 0.026275601 -0.06563203 -0.02824321 0.17061046 0.09458001 0.04044336 0.07255624
-0.06346573 -0.08835044 -0.07438642 -0.5001014 0.18809201 0.13177738 0.054166116 0.047324028
-0.23671368 -0.6604534 -0.16748081 -0.67705065 0.11725067 0.12290711 -0.027952291 0.10410111
-0.045110703 -0.073292285 0.086940214 -0.6046655 0.123739064 0.24806958 0.43362764 -0.42200652
0.2655765 -0.3415395 0.2493316 -0.380059 0.040811677 -0.19147453 -0.04086801 0.061968785
-0.01698083 -0.02316017 -0.04985614 0.036738288 -0.22799441 0.011875089 -0.04946639 0.17642936
-0.039471615 -0.12989184 0.45105898 -0.31344098 0.71501505 -0.2934581 -0.09394152 0.21384752
-0.022318006 -0.069815435 0.49763748 -0.22570221 1.2672509 -0.15837717 -0.09732398 0.21578307
-0.12329888 0.045036938 -0.053942967 0.018674122 0.4284169 -0.045316413 -0.07862009 0.30640876
-0.14735228 0.31427303 -0.14786132 0.15832058 -0.20157395 0.19087702 -0.19146058 0.24227846
0.17504174 0.11795989 0.06663922 0.10918698 0.0075218957 0.04567276 -0.029798103 -0.03457565
0.16567753 0.10354036 0.041614372 0.11505779 -0.024064748 -0.1349941 0.32597908 -0.7094615
0.10040269 0.13707347 -0.12129181 0.11749902 0.067111716 -0.08886313 0.6545481 -0.45915005
0.0013914565 0.14293143 -0.25297758 0.15097755 -0.26610023 -0.13605858 -0.07946899 -0.6428996
0.22915345 -0.07317574 -0.065461814 0.6975405 0.04956297 0.2886528 0.11867492 0.17128974
0.23673515 0.17420016 0.041908674 0.059321985 0.03194062 0.118555255 -0.0028027934 0.051274978
0.031303734 0.072090015 0.10679257 0.020852225 0.039607894 0.04938373 -0.04813465 -0.2923946
-0.2969874 -0.5817389 0.2093059 -0.04482473 -0.10255897 0.007533163 -0.45561203 -0.08384819
-0.66036296 -0.65035605 0.2737059 0.031428833 0.0014891425 0.040849894 -0.39176515 -0.0855266
-0.5868438 -0.6366104 0.036648333 0.2934307 0.2484329 -0.43181914 0.30326563 -0.3770228
0.1389251 -0.36332607 -0.10722576 -0.3919949 0.1013466 -0.13584177 0.0055193286 -0.05414249
-0.082798526 0.11946189 -0.08858135 0.18228734 0.20970412 -0.14026342 0.00075641106 -0.14026894
-0.064875655 0.095633976 -0.03140599 0.11264934 0.12540509 -0.25641415 0.07117654 -0.23685111
0.02615017 0.13424462 0.029219985 0.11824241 0.032953274 -0.50783116 0.058766756 -0.44839913
0.059127647 0.117644824 0.046793483 0.15425242 -0.27161747 -0.0036318004 0.89079213 -1.380597
00000000: 8870 f63d 3030 323d ea9c 4abf 32a0 a0bd
00000010: 2e64 bebe fc78 18be 92ba ccbe c883 3ebc
00000020: aef8 e2be b134 c3be f4f1 94bc 3293 7d3d
00000030: f2c9 a3bc b7a3 833d 07d1 db3d 1d96 293e
00000040: f01d 293e bdd2 6d3e 1e62 44bd 6a27 813d
00000050: da0a bcbd eb3b 1abe 14e4 7cbd edc3 6fbe
00000060: 7c30 0dbe 00d4 0cbe 1d27 1ebe 5059 013d
00000070: 6045 88bc b9d3 05be ebf9 893c 8412 44be
00000080: 6b9e ecbd d1a2 7f3c b329 90be a6c7 b4bd
00000090: d853 86bd 6dab 4abe be47 843d ba04 29be
000000a0: af94 87bd db33 5d3c c0e7 8dbe e83c e43d
000000b0: ab54 fdbb 57a0 da3e b8fa c93d 13aa 673e
000000c0: 9d7c 953d e7d8 393e fb70 c83d 2cf3 053e
000000d0: 81d9 5b3d 536e ad3d 53fe fc3c 5fdd 8f3d
000000e0: b377 4abd ee3f d73c 166a 86bd 4e5e e7bc
000000f0: 82b4 2e3e 2ab3 c13d f0a7 253d 5e98 943d
00000100: 52fa 81bd 13f1 b4bd e857 98bd a506 00bf
00000110: 319b 403e a6f0 063e 4add 5d3d d7d6 413d
00000120: 1265 72be 7913 29bf 1780 2bbe 3153 2dbf
00000130: 1f21 f03d b9b6 fb3d 34fc e4bc f632 d53d
00000140: 00c6 38bd 441a 96bd b60d b23d 5ccb 1abf
00000150: e86a fd3d f405 7e3e 7104 de3e 3d11 d8be
00000160: a5f9 873e 44de aebe c850 7f3e 1897 c2be
00000170: 252a 273d e611 44be 3765 27bd fbd2 7d3d
00000180: 621b 8bbc 66ba bdbc f435 4cbd e37a 163d
00000190: 5e77 69be bc8f 423c 459d 4abd e6a9 343e
000001a0: fdac 21bd 5e02 05be 34f1 e63e 567b a0be
000001b0: 3a0b 373f 2440 96be 6964 c0bd d8fa 5a3e
000001c0: 40d4 b6bc 65fb 8ebd 57ca fe3e 7b1e 67be
000001d0: 4735 a23f a02d 22be cb51 c7bd 3df6 5c3e
000001e0: 2084 fcbd a778 383d 4df3 5cbd 79fa 983c
000001f0: 7659 db3e b49d 39bd 9203 a1bd 9ce1 9c3e
00000200: 84e3 16be 65e8 a03e f568 17be ca1e 223e
00000210: 6769 4ebe 4475 433e 3e0e 44be d817 783e
00000220: 243e 333e f494 f13d 257a 883d 6c9d df3d
00000230: 3c7a f63b 5c13 3b3d 271b f4bc 329f 0dbd
00000240: 5fa7 293e f80c d43d d573 2a3d 6ba3 eb3d
00000250: 6f23 c5bc e53b 0abe bbe6 a63e 459f 35bf
00000260: ed9f cd3d fd5c 0c3e d767 f8bd 54a3 f03d
00000270: de71 893d dffd b5bd 7790 273f b715 ebbe
00000280: 8861 b63a 9e5c 123e 4786 81be dc99 1a3e
00000290: 4a3e 88be f152 0bbe a3c0 a2bd 1195 24bf
000002a0: 34a7 6a3e 2add 95bd d810 86bd 0492 323f
000002b0: 8a02 4b3d 4dca 933e d60b f33d 9466 2f3e
000002c0: b36a 723e 8761 323e 6ea8 2b3d 9cfb 723d
000002d0: 2bd4 023d 19cd f23d 12af 37bb b605 523d
000002e0: 5838 003d eea3 933d 10b6 da3d 49d2 aa3c
000002f0: e33b 223d 9846 4a3d d728 45bd bfb4 95be
00000300: bc0e 98be d7ec 14bf 4954 563e 239a 37bd
00000310: 700a d2bd c0d8 f63b fb45 e9be 9ab8 abbd
00000320: 8c0d 29bf bc7d 26bf 2e23 8c3e 85bb 003d
00000330: 552f c33a 3852 273d 7195 c8be 9228 afbd
00000340: 653b 16bf e6f8 22bf 901c 163d 8c3c 963e
00000350: 3265 7e3e 6617 ddbe a245 9b3e 2209 c1be
00000360: 6242 0e3e e005 babe 2e99 dbbd 8eb3 c8be
00000370: ce8e cf3d 1b1a 0bbe 7cdb b43b 84c4 5dbd
00000380: 4692 a9bd 6fa8 f43d 246a b5bd 88a9 3a3e
00000390: adbc 563e 37a1 0fbe e349 463a a9a2 0fbe
000003a0: 87dd 84bd bfdb c33d 91a3 00bd b2b4 e63d
000003b0: 316a 003e b748 83be 01c5 913d 1989 72be
000003c0: e238 d63c 6c77 093e c05e ef3c 1429 f23d
000003d0: 03fa 063d 3901 02bf 69b5 703d 9294 e5be
000003e0: d52f 723d c5ef f03d 86aa 3f3d 59f4 1d3e
000003f0: 7211 8bbe 8003 6ebb f40a 643f 67b7 b0bf
